assets/lstm_model.tflite (tflite, 719880 bytes, 7 tensors)

sequential_1/dense_1/MatMul f4 [2, 100]
00000000: bcda ca3c 480f a8be 6fc9 52be 1edf bcbe
00000010: d810 a3be d67c 87be 2b0d 47be 4dc9 4d3d
00000020: b645 113e e60d 97be 6330 9abe 4dc0 613e
00000030: 77ed a0be 505d 873e 8a0d 8f3e 4688 acbe
00000040: 17ce a53e d6e8 b03e d2ef 8dbe d712 a2be
00000050: 0a8e 8cbc be7c 843d 0245 043e 4644 9cbe
00000060: 06c6 cbbd a3c3 4dbe 2b88 3abe 6547 a3be
00000070: e0f8 c53e 66d2 44be 410d afbe 56ca 153e
00000080: dc82 b9bd edd6 a63e 63d9 833e fd4a cabe
00000090: a340 ad3e 9868 933e bafa 3f3e a037 81be
000000a0: cf66 5bbe e8be 6fbc f5cc 9abe 2199 9f3e
000000b0: 85a4 87be e44c bf3c 6eb1 9cbe 3f82 973e
000000c0: 2a1c 12be 39ee 8b3e a917 ce3e e911 543e
000000d0: 04b0 babd 3380 173e 2364 bb3e dc97 c3be
000000e0: 22f2 b13d 9abd 663d c5e6 c0bd 1976 733e
000000f0: 734e adbe 2e23 e5bd 719b 72be e63a ad3e
00000100: 2c22 82bd c656 e83d cc3d bb3e f166 983e
00000110: 4aae 8cbe 7c99 dc3d 7b96 b83e bbfe 16be
00000120: 7a12 4e3b e0d4 93be 9700 9fbe 560c 9b3c
00000130: 86cd 07be 1593 673e e954 4c3d 5498 cabc
00000140: f981 813e 48f4 e2bd d3e6 113e dcfa 88be
00000150: 4bbe d3bd 2a4f ff3d 6716 2f3d 6483 b7bd
00000160: 702a 93be f877 b43d b50c 293e 7f54 0cbe
00000170: ce47 903e 8782 c43b b82c ab3e 6438 f73d
00000180: ca21 2b3e 32c0 adbe 0057 28be be08 a33d
00000190: a093 05be d930 a43e 87ee af3e 0c7b 9abd
000001a0: cd86 df3e 65d1 353c 2594 823e 7d75 cabe
000001b0: 7ce1 7cbe 3a71 6d3e ec9e 1b3e 38f8 a2be
000001c0: 1163 153e a92c 41be 009f 243d 68f5 923e
000001d0: 1c99 90be dc7c 83be 5f4f 9c3e fa68 803e
000001e0: 47e0 0cbe ef1f d83d 35a4 28be 10d7 623e
000001f0: 307e b7be d4ea b33e 1b34 b03e 88ac 4bbc
00000200: 31a9 7bbe cf7b 793e 46ce 3f3e e3af 763e
00000210: 18cd cb3e ded6 663c dedf 533d ce34 aa3d
00000220: 9709 89be c338 9dbe 499d 9dbe 9dfe 8e3e
00000230: 444d 973e 258f 963c 0b3d 833d 02db 2abe
00000240: 322b 5e3e b416 493e 48f3 c53e 2072 96be
00000250: a317 453e bf08 aabd 1b73 bdbd 5e1a 16be
00000260: 2c8b 573e 6681 91be 7263 31be e803 b93d
00000270: fe4b 473e a3e7 97be 2361 123e c609 b2bd
00000280: 2669 893e 6e39 76be 6454 c73e f5a1 a4be
00000290: c685 893e 584a a4be f224 9b3b b0ed bdbe
000002a0: e3c6 4abd 81a9 67be adff 99be b2c4 a53e
000002b0: c6bb 123e 6558 753e 2c65 563d e7ca babe
000002c0: 76ce 903e a392 bfbe e4e1 c9bd a1e3 84be
000002d0: 30ed 9c3d d14c c83e 5ef2 07be 72a0 953e
000002e0: b1e5 903e 3077 a83c 5d74 9fbe cc16 9d3d
000002f0: 6d62 2a3e 15b4 bc3d f319 4ebe edb6 74bd
00000300: 8cbb ebbd 40aa 9dbe 4761 303d ab01 053e
00000310: 5514 cdbe 2bf1 c03d 23b2 9b3e 242b 9e3e
0.024762504 -0.3282416 -0.20584653 -0.36888975 -0.31848788 -0.2646243 -0.19438617 0.050240804
0.14186749 -0.2950279 -0.3011504 0.22046013 -0.3143117 0.2643838 0.27940017 -0.33697718
0.32383797 0.3455264 -0.2772203 -0.31655 -0.017157573 0.06469105 0.1291695 -0.30520838
-0.09949879 -0.2009416 -0.18216006 -0.31890407 0.3866644 -0.19220886 -0.341898 0.14627966
-0.090581626 0.3258585 0.2575179 -0.39510337 0.33838376 0.28790736 0.18747988 -0.2523775
-0.21425937 -0.014632918 -0.30234495 0.31171516 -0.26492706 0.023352094 -0.30604118 0.29591557
-0.14268556 0.27330187 0.40252426 0.20709957 -0.091156036 0.14794998 0.36599836 -0.38201797
0.08688761 0.056333162 -0.09419016 0.2377552 -0.33848915 -0.111883506 -0.23692109 0.33833998
-0.06354174 0.11344676 0.36570585 0.29766038 -0.27476722 0.10771462 0.36052307 -0.1474561
0.0031444118 -0.28873348 -0.31055138 0.01892678 -0.13261995 0.22614701 0.049885664 -0.024730839
0.25294474 -0.11081749 0.14248209 -0.2675389 -0.1033903 0.12466271 0.042745974 -0.08960608
-0.28743315 0.08811945 0.16508754 -0.13704108 0.28179783 0.0059970054 0.33432555 0.120713025
0.16712108 -0.33935696 -0.16439438 0.07960652 -0.13044596 0.32068518 0.3436167 -0.075430006
0.43657532 0.011097287 0.2550365 -0.3954276 -0.2469539 0.23187724 0.15197343 -0.3183
0.14588572 -0.18864693 0.040190697 0.28702855 -0.28241813 -0.25681198 0.30529305 0.2508009
-0.1375743 0.10552966 -0.1646889 0.22152352 -0.3583846 0.35140097 0.34414753 -0.012431271
-0.2457626 0.24363635 0.18731031 0.24090533 0.39804912 0.014089314 0.05172717 0.08310853
-0.2676513 -0.30707368 -0.30784062 0.2792863 0.29551136 0.018378804 0.064081274 -0.16685107
0.21696165 0.19637567 0.3866217 -0.29383945 0.19247298 -0.083024494 -0.0925047 -0.14658496
0.21049184 -0.28419036 -0.17323092 0.09033948 0.19462582 -0.29668912 0.14294867 -0.086932704
0.26838034 -0.24045345 0.38931572 -0.32154813 0.26859874 -0.3208797 0.004734629 -0.37095404
-0.04950608 -0.22623254 -0.30077878 0.3237663 0.14329442 0.23959501 0.05234258 -0.36482927
0.28282517 -0.37416562 -0.09857538 -0.25954917 0.076624274 0.39121106 -0.1327605 0.29223973
0.2830024 0.020564646 -0.31143466 0.07670364 0.16639109 0.092140354 -0.20127086 -0.059744764
-0.11510381 -0.30793953 0.04306152 0.12988918 -0.40054575 0.09420999 0.30409345 0.3089229

sequential_1/dense_1/BiasAdd/ReadVariableOp f4 [2]
00000000: eeb7 b13b 32b4 5bbb
0.0054235375 -0.0033524153

sequential_1/lstm_1/Read_2/ReadVariableOp f4 [400]
00000000: 1b2f 253c b355 833d 5249 033d 1fbb 083c
00000010: b729 bb3d 437c 813c 4c4d a43d ab1e 073d
00000020: 3fde 0e3d e7cb 8f3d 328d 783d 80b1 7a3d
00000030: f450 983d 88bf 023d f0de ee3b c802 913d
00000040: 3546 ab3d 91ae 8b3d 939c 723d 255a c93d
00000050: 786b c13b 478c 993c dbd3 1c3b 6944 683d
00000060: fcd6 a3ba 9141 7c3d 8b85 6d3d 580f 983c
00000070: 1cc4 a33d 777e 323d e7da 4d3d 1083 b73c
00000080: 2ddc 7a3d f4e0 0d3d 96d7 3b3c 18b3 163d
00000090: 55c2 6b3d 1555 a73d 43fe 513d b7ba 8a3d
000000a0: 33a7 7b3d 2283 1e3c 4c60 f13c e66c 5a3d
000000b0: 0fb0 143d 2590 d33c 0f1c a73d c2c1 8e3d
000000c0: 425e e63c 69ab 9f3d 2c66 893d a5ae c53c
000000d0: 5ec5 943c 0098 2e3d cfa2 213d 2e62 353d
000000e0: d8c1 ca3c 5e35 ea3c ada0 5bbb 4f53 ee3c
000000f0: 70d9 993d 182a 663c 892c b73d 287f cb3d
00000100: b572 e33c 251b a93d b8a2 9a3c 7d17 8f3d
00000110: d460 9c3c 3298 f13c 1a26 563d 41f1 023d
00000120: 260e ccbc 4227 ee3b 2800 323c 0aac bc3c
00000130: afe3 6a3d 6aa2 2e3d 875a 34bc ccc1 b43c
00000140: 2dc6 f8bc 3dd4 0e3d 283d 6e3c 83f1 2c3d
00000150: 5516 2b3d dcca 073b 596b 1e3d 96a1 80bc
00000160: d533 2c3d cd23 413d 7612 2e3d bbb8 08bd
00000170: 65de 7e3d 2579 573d d6ad 113d ed0e 16bb
00000180: 434f 5a3d ea21 3a3d a10f 5b3d 25db d53b
00000190: 208a 803f 71cc 803f f3f5 803f 8ae8 7c3f
000001a0: f963 823f 9658 7c3f f05f 813f a4b3 803f
000001b0: 29f9 7e3f 5a69 813f 2c93 823f 4a08 823f
000001c0: 6bd1 803f ff3d 803f 9fd4 7b3f 728a 813f
000001d0: 561d 833f 038c 813f f7db 803f 7a41 833f
000001e0: acc8 7d3f 3cb1 803f b211 7c3f 1be2 833f
000001f0: 1396 7f3f 615a 813f 204e 813f 9611 7d3f
00000200: 9e86 823f 17c7 803f e371 7e3f cc2b 823f
00000210: ade5 813f 885f 823f c6a7 7d3f d445 813f
00000220: b195 813f 87ad 823f 9645 823f e18f 813f
00000230: 7993 813f 0dd8 7b3f df61 813f df4a 813f
00000240: ced8 803f 83ba 7f3f 8d5f 823f 89fb 803f
00000250: c177 803f 88e7 833f 72d9 803f ed34 803f
00000260: e111 813f 809f 813f 01fd 813f cb65 803f
00000270: 41ad 7f3f 7721 7f3f 3532 7d3f 3e7d 823f
00000280: 6a6d 803f a010 813f 77c7 813f 492e 823f
00000290: 0d6d 803f 5c28 833f 3db0 803f c431 833f
000002a0: 4edb 803f a24c 813f 1071 823f 1d9f 803f
000002b0: 9776 783f 7626 7f3f 5465 813f 71d9 7e3f
000002c0: d06c 823f 576a 813f 2281 7c3f 6ab4 7f3f
000002d0: 8ae1 7a3f 981e 803f 3920 7f3f 8b46 823f
000002e0: 844b 803f 02f6 7c3f 1f54 813f cf84 733f
000002f0: 242d 813f 7f4c 823f f2a9 813f ec63 763f
00000300: 7886 803f 467e 813f eebe 813f 5327 7e3f
00000310: 6ce0 7e3f c5e9 813f 5802 823f 5d3d 803f
00000320: b9c9 933b 4806 87ba 810d 48bc afa3 38bc
00000330: b760 3bbc 47d3 43bc 6d1f 23bc aad7 3f3c
00000340: dd35 d7ba b0f0 90bb fbe3 f1bb 5bce a73b
00000350: 35c6 c3bb d9ff 133c 5e5f 9d3c ef5a 28bc
00000360: 1078 883c 4eee 373c e3f6 d8bb 43b7 adbc
00000370: cc6b 763b 5d5f 6cbc 3573 463c 1835 6bba
00000380: 3066 43bb 04ce b439 8714 29bc e7be c93b
00000390: 6123 0c3c a120 02bc 87c6 ed3b dc3e 68bc
000003a0: d469 efbb 8a6a 593c dea6 f03b e073 42bc
000003b0: c8eb 0f3c 778f 2a3c 635c 6b3c 2e58 92bb
000003c0: 62ed 0bbc 8c6d c53b 406e d83c bddd 263c
000003d0: 3b61 1ebc bc00 c9bb 8086 73bc 6e9e 02bc
000003e0: d849 423c 7eac ad3c 7eb2 c83b 5c85 8f3c
000003f0: 644d 03ba b2c9 2c3c 40ad 483c a04e 37bc
0.010082032 0.0641283 0.032052346 0.008345394 0.09138816 0.015806323 0.08022556 0.03298823
0.03487992 0.07021313 0.06068153 0.061204433 0.074373156 0.03192094 0.00728976 0.070806086
0.08363 0.06820405 0.059231352 0.09831647 0.005902704 0.018743647 0.0023929987 0.056705866
-0.0012499983 0.061585966 0.057988685 0.018562004 0.07996389 0.043577638 0.05025759 0.022401363
0.061245132 0.03463836 0.011464974 0.03679189 0.057558376 0.08170525 0.051267873 0.06773894
0.06143875 0.009674819 0.029464863 0.05332651 0.036300715 0.02582557 0.081596486 0.0697055
0.028121118 0.07796366 0.06708941 0.024131129 0.018160518 0.042625427 0.039461907 0.044283085
0.024750635 0.0285899 -0.0033512518 0.029092459 0.07512176 0.014048122 0.08944041 0.099363625
0.027764658 0.082571305 0.018876418 0.06986902 0.01908914 0.029491518 0.05228243 0.03196836
-0.02490909 0.0072678635 0.010864295 0.023031253 0.057346042 0.04263536 -0.0110079115 0.022065066
-0.030367935 0.034870375 0.014540948 0.04222251 0.041769344 0.002072028 0.038676593 -0.01570205
0.04204162 0.047153283 0.042498074 -0.033379298 0.06222381 0.052605767 0.035566173 -0.002289708
0.053298246 0.0454425 0.0534817 0.006526368 1.0042152 1.006239 1.0075058 0.98792326
1.0186759 0.9857267 1.0107403 1.0054822 0.9959894 1.0110276 1.0201163 1.015878
1.0063909 1.001892 0.9837131 1.0120375 1.0243328 1.0120853 1.0067128 1.0254357
0.99134326 1.0054088 0.984645 1.0303377 0.9983837 1.0105706 1.0101967 0.9885496
1.0197332 1.0060757 0.9939253 1.0169616 1.0148216 1.0185404 0.99084127 1.0099435
1.0123807 1.0209206 1.0177486 1.0122033 1.012313 0.9837654 1.0107993 1.0100974
1.0066164 0.9989397 1.018541 1.0076762 1.0036546 1.0305033 1.0066359 1.0016152
1.0083581 1.01268 1.0155336 1.0031065 0.9987374 0.9966044 0.98904735 1.0194471
1.003339 1.0083199 1.0138997 1.0170375 1.003328 1.0246692 1.0053784 1.0249562
1.0066926 1.0101511 1.0190754 1.0048558 0.97055954 0.9966806 1.0109048 0.9955054
1.0189457 1.0110577 0.9863454 0.99884665 0.98000395 1.0009336 0.9965854 1.0177778
1.0023046 0.9881288 1.0103797 0.95124525 1.0091901 1.0179595 1.0129988 0.9624622
1.0041037 1.011666 1.0136392 0.99278754 0.9956119 1.0149466 1.0156965 1.0018727
0.004510131 -0.0010301555 -0.012210251 -0.011269494 -0.011436633 -0.011952228 -0.009956223 0.011709133
-0.0016419251 -0.0044232234 -0.0073819137 0.005121035 -0.005974556 0.009033167 0.019210514 -0.0102755865
0.016658813 0.01122625 -0.006621228 -0.02120555 0.0037600873 -0.014427033 0.012112428 -0.000897245
-0.0029815547 0.0003448577 -0.0103198355 0.0061567905 0.008553357 -0.00794235 0.0072563323 -0.014175143
-0.007306317 0.01327003 0.007344111 -0.011868447 0.008784242 0.010410181 0.014365288 -0.0044660782
-0.008540483 0.006025022 0.026419759 0.010184702 -0.009666736 -0.0061341207 -0.01486361 -0.007972343
0.011858426 0.021200415 0.0061247936 0.017519645 -0.00050087855 0.010546135 0.012248337 -0.011188179

sequential_1/embedding_1/embedding_lookup i1 [10000, 64] scale=0.0015019799 zero_point=0
00000000: fce5 01eb 1a1c ed1b 14e7 fe11 10dc 080e
00000010: f800 eff3 22fa 1720 ffe7 2522 e9eb 090e
00000020: fa21 da0c 1f00 f50b f2e0 01fd fff1 f4ee
00000030: 0b0f 0913 0517 0cdf ecf0 09fd eff7 fe0d
00000040: 1714 f7f1 eceb 0afa 0c03 ea00 0af2 e5e0
00000050: 0af0 080e e603 f214 0fee 0ae9 feef 1818
00000060: f104 0220 05e6 1308 09e8 12e2 f603 e4ff
00000070: 0b04 1ae7 19f2 0dfc 161e e309 f1fe 13fa
00000080: 0503 04fa 3304 ea05 27e1 03fa 02dc f3fc
00000090: 261f dcf1 e0d2 3516 fbd7 2511 19ea 261e
000000a0: 01fc d709 22d8 0026 cef9 ff01 e6e3 eb25
000000b0: 0d1e 24fd fe0b 02d8 c9f1 21dd c9cb daff
000000c0: ebe7 ec12 0ff9 0216 e9f4 011a ffec e605
000000d0: e602 16e4 1d12 1f09 ede0 131d 1520 041e
000000e0: fd0a f71a 1b16 0aef 1f01 11f1 0605 fb19
000000f0: ffe2 0316 0b08 ff0f 0bec 10f7 e2fd 1513
-0.0060079196 -0.040553458 0.0015019799 -0.03154158 0.039051477 0.042055435 -0.028537618 0.040553458
0.030039597 -0.037549496 -0.0030039598 0.025533658 0.024031678 -0.054071277 0.012015839 0.021027718
-0.012015839 0.0 -0.025533658 -0.019525738 0.051067315 -0.00901188 0.034545537 0.048063356
-0.0015019799 -0.037549496 0.055573255 0.051067315 -0.034545537 -0.03154158 0.013517819 0.021027718
-0.00901188 0.049565338 -0.057075236 0.01802376 0.046561375 0.0 -0.016521778 0.016521778
-0.021027718 -0.048063356 0.0015019799 -0.00450594 -0.0015019799 -0.022529699 -0.01802376 -0.027035639
0.016521778 0.022529699 0.013517819 0.028537618 0.0075098993 0.034545537 0.01802376 -0.049565338
-0.030039597 -0.024031678 0.013517819 -0.00450594 -0.025533658 -0.013517819 -0.0030039598 0.019525738
0.034545537 0.030039597 -0.013517819 -0.022529699 -0.030039597 -0.03154158 0.015019799 -0.00901188
0.01802376 0.00450594 -0.033043556 0.0 0.015019799 -0.021027718 -0.040553458 -0.048063356
0.015019799 -0.024031678 0.012015839 0.021027718 -0.039051477 0.00450594 -0.021027718 0.030039597
0.022529699 -0.027035639 0.015019799 -0.034545537 -0.0030039598 -0.025533658 0.03604752 0.03604752
-0.022529699 0.0060079196 0.0030039598 0.048063356 0.0075098993 -0.039051477 0.028537618 0.012015839
0.013517819 -0.03604752 0.027035639 -0.045059398 -0.015019799 0.00450594 -0.042055435 -0.0015019799
0.016521778 0.0060079196 0.039051477 -0.037549496 0.037549496 -0.021027718 0.019525738 -0.0060079196
0.033043556 0.045059398 -0.043557417 0.013517819 -0.022529699 -0.0030039598 0.028537618 -0.00901188
0.0075098993 0.00450594 0.0060079196 -0.00901188 0.07660098 0.0060079196 -0.033043556 0.0075098993
0.058577217 -0.046561375 0.00450594 -0.00901188 0.0030039598 -0.054071277 -0.019525738 -0.0060079196
0.057075236 0.046561375 -0.054071277 -0.022529699 -0.048063356 -0.069091074 0.07960493 0.033043556
-0.0075098993 -0.061581176 0.055573255 0.025533658 0.037549496 -0.033043556 0.057075236 0.045059398
0.0015019799 -0.0060079196 -0.061581176 0.013517819 0.051067315 -0.060079195 0.0 0.057075236
-0.07509899 -0.010513859 -0.0015019799 0.0015019799 -0.039051477 -0.043557417 -0.03154158 0.055573255
0.019525738 0.045059398 0.054071277 -0.00450594 -0.0030039598 0.016521778 0.0030039598 -0.060079195
-0.08260889 -0.022529699 0.049565338 -0.052569296 -0.08260889 -0.07960493 -0.057075236 -0.0015019799
-0.03154158 -0.037549496 -0.030039597 0.027035639 0.022529699 -0.010513859 0.0030039598 0.033043556
-0.034545537 -0.01802376 0.0015019799 0.039051477 -0.0015019799 -0.030039597 -0.039051477 0.0075098993
-0.039051477 0.0030039598 0.033043556 -0.042055435 0.043557417 0.027035639 0.046561375 0.013517819
-0.028537618 -0.048063356 0.028537618 0.043557417 0.03154158 0.048063356 0.0060079196 0.045059398
-0.00450594 0.015019799 -0.013517819 0.039051477 0.040553458 0.033043556 0.015019799 -0.025533658
0.046561375 0.0015019799 0.025533658 -0.022529699 0.00901188 0.0075098993 -0.0075098993 0.037549496
-0.0015019799 -0.045059398 0.00450594 0.033043556 0.016521778 0.012015839 -0.0015019799 0.022529699
0.016521778 -0.030039597 0.024031678 -0.013517819 -0.045059398 -0.00450594 0.03154158 0.028537618

sequential_1/lstm_1/Read_2/ReadVariableOp1 f4 [400]
00000000: 1b2f 253c b355 833d 5249 033d 1fbb 083c
00000010: b729 bb3d 437c 813c 4c4d a43d ab1e 073d
00000020: 3fde 0e3d e7cb 8f3d 328d 783d 80b1 7a3d
00000030: f450 983d 88bf 023d f0de ee3b c802 913d
00000040: 3546 ab3d 91ae 8b3d 939c 723d 255a c93d
00000050: 786b c13b 478c 993c dbd3 1c3b 6944 683d
00000060: fcd6 a3ba 9141 7c3d 8b85 6d3d 580f 983c
00000070: 1cc4 a33d 777e 323d e7da 4d3d 1083 b73c
00000080: 2ddc 7a3d f4e0 0d3d 96d7 3b3c 18b3 163d
00000090: 55c2 6b3d 1555 a73d 43fe 513d b7ba 8a3d
000000a0: 33a7 7b3d 2283 1e3c 4c60 f13c e66c 5a3d
000000b0: 0fb0 143d 2590 d33c 0f1c a73d c2c1 8e3d
000000c0: 425e e63c 69ab 9f3d 2c66 893d a5ae c53c
000000d0: 5ec5 943c 0098 2e3d cfa2 213d 2e62 353d
000000e0: d8c1 ca3c 5e35 ea3c ada0 5bbb 4f53 ee3c
000000f0: 70d9 993d 182a 663c 892c b73d 287f cb3d
00000100: b572 e33c 251b a93d b8a2 9a3c 7d17 8f3d
00000110: d460 9c3c 3298 f13c 1a26 563d 41f1 023d
00000120: 260e ccbc 4227 ee3b 2800 323c 0aac bc3c
00000130: afe3 6a3d 6aa2 2e3d 875a 34bc ccc1 b43c
00000140: 2dc6 f8bc 3dd4 0e3d 283d 6e3c 83f1 2c3d
00000150: 5516 2b3d dcca 073b 596b 1e3d 96a1 80bc
00000160: d533 2c3d cd23 413d 7612 2e3d bbb8 08bd
00000170: 65de 7e3d 2579 573d d6ad 113d ed0e 16bb
00000180: 434f 5a3d ea21 3a3d a10f 5b3d 25db d53b
00000190: 208a 803f 71cc 803f f3f5 803f 8ae8 7c3f
000001a0: f963 823f 9658 7c3f f05f 813f a4b3 803f
000001b0: 29f9 7e3f 5a69 813f 2c93 823f 4a08 823f
000001c0: 6bd1 803f ff3d 803f 9fd4 7b3f 728a 813f
000001d0: 561d 833f 038c 813f f7db 803f 7a41 833f
000001e0: acc8 7d3f 3cb1 803f b211 7c3f 1be2 833f
000001f0: 1396 7f3f 615a 813f 204e 813f 9611 7d3f
00000200: 9e86 823f 17c7 803f e371 7e3f cc2b 823f
00000210: ade5 813f 885f 823f c6a7 7d3f d445 813f
00000220: b195 813f 87ad 823f 9645 823f e18f 813f
00000230: 7993 813f 0dd8 7b3f df61 813f df4a 813f
00000240: ced8 803f 83ba 7f3f 8d5f 823f 89fb 803f
00000250: c177 803f 88e7 833f 72d9 803f ed34 803f
00000260: e111 813f 809f 813f 01fd 813f cb65 803f
00000270: 41ad 7f3f 7721 7f3f 3532 7d3f 3e7d 823f
00000280: 6a6d 803f a010 813f 77c7 813f 492e 823f
00000290: 0d6d 803f 5c28 833f 3db0 803f c431 833f
000002a0: 4edb 803f a24c 813f 1071 823f 1d9f 803f
000002b0: 9776 783f 7626 7f3f 5465 813f 71d9 7e3f
000002c0: d06c 823f 576a 813f 2281 7c3f 6ab4 7f3f
000002d0: 8ae1 7a3f 981e 803f 3920 7f3f 8b46 823f
000002e0: 844b 803f 02f6 7c3f 1f54 813f cf84 733f
000002f0: 242d 813f 7f4c 823f f2a9 813f ec63 763f
00000300: 7886 803f 467e 813f eebe 813f 5327 7e3f
00000310: 6ce0 7e3f c5e9 813f 5802 823f 5d3d 803f
00000320: b9c9 933b 4806 87ba 810d 48bc afa3 38bc
00000330: b760 3bbc 47d3 43bc 6d1f 23bc aad7 3f3c
00000340: dd35 d7ba b0f0 90bb fbe3 f1bb 5bce a73b
00000350: 35c6 c3bb d9ff 133c 5e5f 9d3c ef5a 28bc
00000360: 1078 883c 4eee 373c e3f6 d8bb 43b7 adbc
00000370: cc6b 763b 5d5f 6cbc 3573 463c 1835 6bba
00000380: 3066 43bb 04ce b439 8714 29bc e7be c93b
00000390: 6123 0c3c a120 02bc 87c6 ed3b dc3e 68bc
000003a0: d469 efbb 8a6a 593c dea6 f03b e073 42bc
000003b0: c8eb 0f3c 778f 2a3c 635c 6b3c 2e58 92bb
000003c0: 62ed 0bbc 8c6d c53b 406e d83c bddd 263c
000003d0: 3b61 1ebc bc00 c9bb 8086 73bc 6e9e 02bc
000003e0: d849 423c 7eac ad3c 7eb2 c83b 5c85 8f3c
000003f0: 644d 03ba b2c9 2c3c 40ad 483c a04e 37bc
0.010082032 0.0641283 0.032052346 0.008345394 0.09138816 0.015806323 0.08022556 0.03298823
0.03487992 0.07021313 0.06068153 0.061204433 0.074373156 0.03192094 0.00728976 0.070806086
0.08363 0.06820405 0.059231352 0.09831647 0.005902704 0.018743647 0.0023929987 0.056705866
-0.0012499983 0.061585966 0.057988685 0.018562004 0.07996389 0.043577638 0.05025759 0.022401363
0.061245132 0.03463836 0.011464974 0.03679189 0.057558376 0.08170525 0.051267873 0.06773894
0.06143875 0.009674819 0.029464863 0.05332651 0.036300715 0.02582557 0.081596486 0.0697055
0.028121118 0.07796366 0.06708941 0.024131129 0.018160518 0.042625427 0.039461907 0.044283085
0.024750635 0.0285899 -0.0033512518 0.029092459 0.07512176 0.014048122 0.08944041 0.099363625
0.027764658 0.082571305 0.018876418 0.06986902 0.01908914 0.029491518 0.05228243 0.03196836
-0.02490909 0.0072678635 0.010864295 0.023031253 0.057346042 0.04263536 -0.0110079115 0.022065066
-0.030367935 0.034870375 0.014540948 0.04222251 0.041769344 0.002072028 0.038676593 -0.01570205
0.04204162 0.047153283 0.042498074 -0.033379298 0.06222381 0.052605767 0.035566173 -0.002289708
0.053298246 0.0454425 0.0534817 0.006526368 1.0042152 1.006239 1.0075058 0.98792326
1.0186759 0.9857267 1.0107403 1.0054822 0.9959894 1.0110276 1.0201163 1.015878
1.0063909 1.001892 0.9837131 1.0120375 1.0243328 1.0120853 1.0067128 1.0254357
0.99134326 1.0054088 0.984645 1.0303377 0.9983837 1.0105706 1.0101967 0.9885496
1.0197332 1.0060757 0.9939253 1.0169616 1.0148216 1.0185404 0.99084127 1.0099435
1.0123807 1.0209206 1.0177486 1.0122033 1.012313 0.9837654 1.0107993 1.0100974
1.0066164 0.9989397 1.018541 1.0076762 1.0036546 1.0305033 1.0066359 1.0016152
1.0083581 1.01268 1.0155336 1.0031065 0.9987374 0.9966044 0.98904735 1.0194471
1.003339 1.0083199 1.0138997 1.0170375 1.003328 1.0246692 1.0053784 1.0249562
1.0066926 1.0101511 1.0190754 1.0048558 0.97055954 0.9966806 1.0109048 0.9955054
1.0189457 1.0110577 0.9863454 0.99884665 0.98000395 1.0009336 0.9965854 1.0177778
1.0023046 0.9881288 1.0103797 0.95124525 1.0091901 1.0179595 1.0129988 0.9624622
1.0041037 1.011666 1.0136392 0.99278754 0.9956119 1.0149466 1.0156965 1.0018727
0.004510131 -0.0010301555 -0.012210251 -0.011269494 -0.011436633 -0.011952228 -0.009956223 0.011709133
-0.0016419251 -0.0044232234 -0.0073819137 0.005121035 -0.005974556 0.009033167 0.019210514 -0.0102755865
0.016658813 0.01122625 -0.006621228 -0.02120555 0.0037600873 -0.014427033 0.012112428 -0.000897245
-0.0029815547 0.0003448577 -0.0103198355 0.0061567905 0.008553357 -0.00794235 0.0072563323 -0.014175143
-0.007306317 0.01327003 0.007344111 -0.011868447 0.008784242 0.010410181 0.014365288 -0.0044660782
-0.008540483 0.006025022 0.026419759 0.010184702 -0.009666736 -0.0061341207 -0.01486361 -0.007972343
0.011858426 0.021200415 0.0061247936 0.017519645 -0.00050087855 0.010546135 0.012248337 -0.011188179

while/MatMul_11 i1 [400, 100] scale=0.0018232178 zero_point=0
00000000: 1f01 00e5 e520 c0f6 d53a c8f1 0e0c dea7
00000010: fd08 d819 00fb 1fe2 fae8 352b fbff 380e
00000020: 03f9 121a 300b 0aef da0f 1015 34d1 f21a
00000030: ead2 0613 06f3 02d5 ff10 070a eb0d fbe0
00000040: 170c 1602 0d00 181e e0dd eb05 101c 12f7
00000050: 2d16 1e28 dee5 dfe9 d5e3 f5db eeff f9fe
00000060: 24e4 f7e4 f8d8 fefe 1b00 08fe d301 27ec
00000070: ec1c e51c fe0b 04ae 350a e43c 1919 e702
00000080: ddee 2710 eec5 f0fe fbc1 2216 da0d 23f2
00000090: 0a3e 2913 f90a 09d7 1cef 1d18 0513 19da
000000a0: c807 e5db ee28 0ef1 e739 ffe1 eae5 05e9
000000b0: cf17 36c9 ea18 1101 2208 eafc 1be2 c9e9
000000c0: b6b0 ee04 eb04 0d0b 3010 05e7 18ff 0506
000000d0: 0311 4013 e603 0be8 e508 03e6 f5db 2a1c
000000e0: fbf6 100c ebd6 df21 f3b3 22ea d226 0a0c
000000f0: 0dec 18da e208 22fd 1328 e5e6 2422 fa02
0.056519754 0.0018232178 0.0 -0.04922688 -0.04922688 0.05834297 -0.11668594 -0.018232178
-0.07839837 0.105746634 -0.1021002 -0.027348267 0.02552505 0.021878615 -0.061989408 -0.16226639
-0.0054696538 0.014585743 -0.07292871 0.045580447 0.0 -0.009116089 0.056519754 -0.054696534
-0.0109393075 -0.04375723 0.09663054 0.07839837 -0.009116089 -0.0018232178 0.1021002 0.02552505
0.0054696538 -0.012762525 0.032817923 0.047403663 0.08751446 0.020055396 0.018232178 -0.030994704
-0.06928228 0.027348267 0.029171485 0.038287576 0.09480733 -0.085691236 -0.02552505 0.047403663
-0.040110793 -0.08386802 0.0109393075 0.03464114 0.0109393075 -0.023701832 0.0036464357 -0.07839837
-0.0018232178 0.029171485 0.012762525 0.018232178 -0.038287576 0.023701832 -0.009116089 -0.05834297
0.04193401 0.021878615 0.040110793 0.0036464357 0.023701832 0.0 0.04375723 0.054696534
-0.05834297 -0.06381262 -0.038287576 0.009116089 0.029171485 0.0510501 0.032817923 -0.016408961
0.0820448 0.040110793 0.054696534 0.07292871 -0.061989408 -0.04922688 -0.060166188 -0.04193401
-0.07839837 -0.052873317 -0.020055396 -0.06745906 -0.032817923 -0.0018232178 -0.012762525 -0.0036464357
0.065635845 -0.0510501 -0.016408961 -0.0510501 -0.014585743 -0.07292871 -0.0036464357 -0.0036464357
0.04922688 0.0 0.014585743 -0.0036464357 -0.0820448 0.0018232178 0.071105495 -0.036464356
-0.036464356 0.0510501 -0.04922688 0.0510501 -0.0036464357 0.020055396 0.0072928714 -0.14950386
0.09663054 0.018232178 -0.0510501 0.10939307 0.045580447 0.045580447 -0.045580447 0.0036464357
-0.06381262 -0.032817923 0.071105495 0.029171485 -0.032817923 -0.10756985 -0.029171485 -0.0036464357
-0.009116089 -0.114862725 0.061989408 0.040110793 -0.06928228 0.023701832 0.06381262 -0.02552505
0.018232178 0.11303951 0.07475193 0.03464114 -0.012762525 0.018232178 0.016408961 -0.07475193
0.0510501 -0.030994704 0.052873317 0.04375723 0.009116089 0.03464114 0.045580447 -0.06928228
-0.1021002 0.012762525 -0.04922688 -0.06745906 -0.032817923 0.07292871 0.02552505 -0.027348267
-0.045580447 0.10392342 -0.0018232178 -0.056519754 -0.040110793 -0.04922688 0.009116089 -0.04193401
-0.08933768 0.04193401 0.09845376 -0.100276984 -0.040110793 0.04375723 0.030994704 0.0018232178
0.061989408 0.014585743 -0.040110793 -0.0072928714 0.04922688 -0.054696534 -0.100276984 -0.04193401
-0.13491812 -0.14585742 -0.032817923 0.0072928714 -0.038287576 0.0072928714 0.023701832 0.020055396
0.08751446 0.029171485 0.009116089 -0.045580447 0.04375723 -0.0018232178 0.009116089 0.0109393075
0.0054696538 0.030994704 0.11668594 0.03464114 -0.047403663 0.0054696538 0.020055396 -0.04375723
-0.04922688 0.014585743 0.0054696538 -0.047403663 -0.020055396 -0.06745906 0.07657515 0.0510501
-0.009116089 -0.018232178 0.029171485 0.021878615 -0.038287576 -0.07657515 -0.060166188 0.060166188
-0.023701832 -0.14038777 0.061989408 -0.040110793 -0.08386802 0.06928228 0.018232178 0.021878615
0.023701832 -0.036464356 0.04375723 -0.06928228 -0.054696534 0.014585743 0.061989408 -0.0054696538
0.03464114 0.07292871 -0.04922688 -0.047403663 0.065635845 0.061989408 -0.0109393075 0.0036464357

while/MatMul i1 [400, 64] scale=0.0026436923 zero_point=0
00000000: 1035 14e6 1632 0605 f102 ff17 270c fc19
00000010: e0eb 2dfb 070a fcd7 18ea 0be7 bee7 0e0b
00000020: e7db ddd0 1602 f2f6 1a1b e8fb 1c1b f9cd
00000030: c5f8 d943 14ec 0cfc 3032 f5e9 2e2a f0ee
00000040: d8df fcf6 151b 0301 f6fe 36d3 f100 f410
00000050: f0da 290d d4e3 08e5 09e0 09f8 06fe 03dc
00000060: 0ed9 24d2 cfe8 1cd9 f6e5 280b 02ff ef42
00000070: 130f d10a d8e7 2029 fc21 dd15 f3f3 fe1c
00000080: f805 ccf5 04ee 0505 1021 f7f2 ea19 1adb
00000090: 1a1d e41a 03ee dcea d727 efec 0fee e7f7
000000a0: f607 f507 f704 faf7 f021 1c05 d40a d7f7
000000b0: 2513 fddd 1af0 f816 f517 f6d7 eef4 ce1f
000000c0: f0f1 ecf9 22c7 e6ea dd26 1312 add4 08dc
000000d0: 0c11 0af0 d012 23dc caf1 0809 4124 ede1
000000e0: 23f8 1b2b e107 4327 f727 f4d1 141d 123b
000000f0: 2d02 eddd e7df f70c e4e2 0de3 20e1 d5f4
0.042299077 0.1401157 0.052873846 -0.068736 0.05816123 0.13218461 0.015862154 0.013218462
-0.039655384 0.0052873846 -0.0026436923 0.060804922 0.103104 0.031724308 -0.010574769 0.066092305
-0.084598154 -0.05551754 0.118966155 -0.013218462 0.018505845 0.026436923 -0.010574769 -0.10839138
0.063448615 -0.05816123 0.029080614 -0.066092305 -0.17448369 -0.066092305 0.03701169 0.029080614
-0.066092305 -0.09781662 -0.09252923 -0.12689723 0.05816123 0.0052873846 -0.03701169 -0.026436923
0.068736 0.07137969 -0.063448615 -0.013218462 0.07402338 0.07137969 -0.018505845 -0.13482831
-0.15597785 -0.021149538 -0.103104 0.17712739 0.052873846 -0.052873846 0.031724308 -0.010574769
0.12689723 0.13218461 -0.029080614 -0.060804922 0.121609844 0.11103508 -0.042299077 -0.047586463
-0.10574769 -0.08724184 -0.010574769 -0.026436923 0.05551754 0.07137969 0.007931077 0.0026436923
-0.026436923 -0.0052873846 0.14275938 -0.118966155 -0.039655384 0.0 -0.031724308 0.042299077
-0.042299077 -0.100460306 0.10839138 0.034368 -0.11632246 -0.07666708 0.021149538 -0.07137969
0.023793232 -0.084598154 0.023793232 -0.021149538 0.015862154 -0.0052873846 0.007931077 -0.09517293
0.03701169 -0.103104 0.09517293 -0.121609844 -0.12954092 -0.063448615 0.07402338 -0.103104
-0.026436923 -0.07137969 0.10574769 0.029080614 0.0052873846 -0.0026436923 -0.04494277 0.17448369
0.050230153 0.039655384 -0.12425354 0.026436923 -0.10574769 -0.066092305 0.084598154 0.10839138
-0.010574769 0.08724184 -0.09252923 0.05551754 -0.034368 -0.034368 -0.0052873846 0.07402338
-0.021149538 0.013218462 -0.137472 -0.029080614 0.010574769 -0.047586463 0.013218462 0.013218462
0.042299077 0.08724184 -0.023793232 -0.03701169 -0.05816123 0.066092305 0.068736 -0.09781662
0.068736 0.07666708 -0.07402338 0.068736 0.007931077 -0.047586463 -0.09517293 -0.05816123
-0.10839138 0.103104 -0.04494277 -0.052873846 0.039655384 -0.047586463 -0.066092305 -0.023793232
-0.026436923 0.018505845 -0.029080614 0.018505845 -0.023793232 0.010574769 -0.015862154 -0.023793232
-0.042299077 0.08724184 0.07402338 0.013218462 -0.11632246 0.026436923 -0.10839138 -0.023793232
0.09781662 0.050230153 -0.007931077 -0.09252923 0.068736 -0.042299077 -0.021149538 0.05816123
-0.029080614 0.060804922 -0.026436923 -0.10839138 -0.047586463 -0.031724308 -0.13218461 0.081954464
-0.042299077 -0.039655384 -0.052873846 -0.018505845 0.08988554 -0.15069047 -0.068736 -0.05816123
-0.09252923 0.100460306 0.050230153 0.047586463 -0.21942647 -0.11632246 0.021149538 -0.09517293
0.031724308 0.04494277 0.026436923 -0.042299077 -0.12689723 0.047586463 0.09252923 -0.09517293
-0.14275938 -0.039655384 0.021149538 0.023793232 0.17184 0.09517293 -0.050230153 -0.081954464
0.09252923 -0.021149538 0.07137969 0.11367877 -0.081954464 0.018505845 0.17712739 0.103104
-0.023793232 0.103104 -0.031724308 -0.12425354 0.052873846 0.07666708 0.047586463 0.15597785
0.118966155 0.0052873846 -0.050230153 -0.09252923 -0.066092305 -0.08724184 -0.023793232 0.031724308
-0.07402338 -0.07931077 0.034368 -0.07666708 0.084598154 -0.081954464 -0.11367877 -0.031724308
