assets/model_lstm_09.20.23.tflite (tflite, 719920 bytes, 7 tensors)

sequential_3/dense_3/MatMul f4 [2, 100]
0	0x3ed1914f	0.40931174
1	0xbd783407	-0.060596492
2	0xbe85eab3	-0.26155624
3	0xbd29cd32	-0.041455455
4	0xbebf2386	-0.3733179
5	0x3e497bba	0.19676104
6	0xbeaef8a8	-0.34174085
7	0xbd8246e0	-0.063611746
8	0xb979e113	-0.00023830337
9	0x3e7e907a	0.24859801
10	0x3e3d25f0	0.18471503
11	0xbdf99a92	-0.12187685
12	0x3e8643ef	0.26223704
13	0x3d5bf186	0.05369713
14	0xbcf8ff38	-0.030395135
15	0xbe92c550	-0.28666162
16	0x3e5a48d5	0.21316846
17	0x3e216e67	0.15764771
18	0xbece5f3b	-0.4030703
19	0x3ed8e91c	0.42365348
20	0xbc2e5bea	-0.010642031
21	0xbeadb07a	-0.33923703
22	0xbeb5d29a	-0.3551224
23	0xbecf76cd	-0.40520325
24	0xbeca2f83	-0.39489374
25	0x3e332b80	0.17497063
26	0x3e6f8304	0.23389822
27	0xbe05be3d	-0.13060851
28	0x3ea3eb54	0.3201548
29	0xbeeeeaee	-0.46663612
30	0x3e0a4208	0.13501751
31	0xbe81c568	-0.25345922
32	0x3e427098	0.18988264
33	0x3ed36fe9	0.41296318
34	0xbea44a17	-0.32087776
35	0xbe5e8e8c	-0.21734065
36	0xbdfcca94	-0.12343326
37	0xbebbdb72	-0.3669086
38	0xbe8882b0	-0.26662207
39	0x3ebe25e3	0.3713828
40	0x3e8314f9	0.25601938
41	0xbed4289a	-0.41437227
42	0x3e9e3037	0.3089616
43	0x3e826258	0.25465655
44	0xbe6cce7f	-0.23125647
45	0xbea78047	-0.32715055
46	0x3e48b206	0.1959916
47	0xbecb58b2	-0.39716107
48	0xbde070ae	-0.10958992
49	0x3e7afca3	0.24510436
50	0x3ea7a9e7	0.32746813
51	0xbeda5620	-0.42643833
52	0x3e25948a	0.16169944
53	0xbd1786b8	-0.036993712
54	0xbe53c3b3	-0.20680122
55	0x3e7711e2	0.24127916
56	0x3e85a5c5	0.26103035
57	0xbde6ce06	-0.112697646
58	0xbebb642a	-0.36599857
59	0x3ef80d65	0.4844772
60	0xbd3e5043	-0.046463262
61	0xbe6b5a6a	-0.22983709
62	0x3ec4bef9	0.3842695
63	0xbe5e4112	-0.2170451
64	0xbd2f2336	-0.04275819
65	0xbee54410	-0.4477849
66	0xbed2918b	-0.41126665
67	0xbebab15e	-0.36463445
68	0x3eebe4a4	0.46072876
69	0x3e908a57	0.28230545
70	0xbebd63e7	-0.36990282
71	0x3e0020f8	0.12512577
72	0xbed2581f	-0.41082856
73	0x3ec12047	0.37719938
74	0xbea3e7cf	-0.32012793
75	0x3e7c4a71	0.24637772
76	0x3e16148b	0.14656274
77	0x3ed3caad	0.41365567
78	0x3e9a3015	0.3011481
79	0x3e9c6787	0.30547735
80	0x3e99e3b4	0.30056536
81	0x3e5ffba5	0.21873339
82	0x3bdf5141	0.006815106
83	0xbea31be8	-0.31857228
84	0x3e50bcc5	0.2038451
85	0xbe0a4246	-0.13501844
86	0x3e6c2faa	0.23065057
87	0x3e93b1d1	0.288466
88	0x3e968aef	0.29402873
89	0xbe266be9	-0.16252102
90	0xbe596e51	-0.21233489
91	0x3ea096ec	0.31365144
92	0xbdc68953	-0.09694161
93	0xbe1b30d7	-0.1515535
94	0xbe885d6a	-0.2663377
95	0xbe2cd312	-0.16877392
96	0x3dd0a11e	0.10186981
97	0x3e5bb4b9	0.21455659
98	0xbe50acd0	-0.20378423
99	0xbed2b8d3	-0.41156635
100	0xbdc172fa	-0.09445758
101	0x3ea4505e	0.32092565
102	0x3ca96fb1	0.020683141
103	0xbe3c557d	-0.18391986
104	0x3e76498a	0.2405149
105	0xbeb6ae0e	-0.35679668
106	0x3e55b214	0.20868713
107	0x3ead42de	0.33840078
108	0xbea6c8a3	-0.3257495
109	0xbd19031c	-0.03735648
110	0xbec3df2f	-0.38256213
111	0x3d8729cc	0.06599769
112	0xbed2cbfe	-0.4117126
113	0xbec6c1b6	-0.38819665
114	0x3e87c8ed	0.26520482
115	0x3eccf1da	0.40028268
116	0xbed1759a	-0.40910035
117	0x3d991971	0.07475556
118	0x3df22357	0.11823147
119	0xbedd2dd2	-0.4319902
120	0x3ee11d22	0.4396754
121	0x3e6ed336	0.23322758
122	0x3d9668ed	0.07344232
123	0x3e8dae20	0.2767191
124	0x3ecc70fa	0.39929944
125	0xbe981051	-0.29699948
126	0xbe8305c0	-0.25590324
127	0x3ec968ff	0.39337918
128	0xbe85f891	-0.26166204
129	0x3e862c6e	0.26205772
130	0xbe413823	-0.1886907
131	0x3ebb38bb	0.3656672
132	0xbebc57bb	-0.36785683
133	0xbe41b7fd	-0.18917842
134	0x3ea14445	0.31497398
135	0x3ec4e923	0.3845912
136	0xbcb41f7a	-0.021987665
137	0xbda153ff	-0.07877349
138	0x3e7e423c	0.24829954
139	0xbea59341	-0.32338908
140	0xbed54302	-0.41652685
141	0x3f0399c5	0.5140651
142	0xbe460241	-0.19336797
143	0xbe8e0850	-0.27740717
144	0x3ea40d2f	0.32041308
145	0x3e87f7f5	0.26556364
146	0xbef51fa1	-0.47875693
147	0x3eeba87a	0.46026975
148	0x3e97778a	0.2958339
149	0x3e1ecce0	0.15507841
150	0xbe9c51a6	-0.30531043
151	0x3e5e4ce9	0.21709026
152	0xbd382c29	-0.04496399
153	0xbecbc11d	-0.3979577
154	0x3e757677	0.23970972
155	0x3cbad1fd	0.022805208
156	0xbeba2a76	-0.3636052
157	0x3e7b1dd7	0.24523102
158	0x3e670d3a	0.2256364
159	0xbe5a12fd	-0.21296306
160	0xbdc36301	-0.09540368
161	0xbe08d489	-0.13362326
162	0xbe43261f	-0.19057511
163	0x3e3574f0	0.1772039
164	0x3e704266	0.23462829
165	0x3e804add	0.25057116
166	0x3e9aff65	0.30272976
167	0x3d7ffa89	0.06249479
168	0xbea8b59a	-0.3295105
169	0xbeb8d5d8	-0.3610065
170	0x3f033136	0.51246965
171	0xbede257c	-0.43387973
172	0x3eab0152	0.33399445
173	0xbebfdad1	-0.3747163
174	0x3dc8ad2a	0.097986534
175	0xbe91c70f	-0.28472182
176	0xbd5cf7ad	-0.05394714
177	0xbe28eb85	-0.16496094
178	0x3b7aca35	0.0038267497
179	0x3d32c213	0.043642115
180	0xbe835da5	-0.25657383
181	0xbe62b0a3	-0.22137694
182	0xbe019fdf	-0.12658642
183	0x3e6d2071	0.23156907
184	0xbed3738f	-0.41299102
185	0xbe434c1d	-0.19072004
186	0xbe878724	-0.26470292
187	0xbe9aaa73	-0.30208167
188	0xbe873139	-0.2640474
189	0x3e38f96b	0.18063895
190	0x3db6dcc5	0.08928827
191	0xbe89f2a5	-0.26942936
192	0xbdeb5370	-0.11490524
193	0x3e2a05e2	0.16603807
194	0x3e905b79	0.28194788
195	0x3eb68eff	0.35655972
196	0xbd08ce0e	-0.033399634
197	0xbdfad808	-0.12248236
198	0x3e7dc59d	0.24782415
199	0x3ea52e62	0.3226195

sequential_3/dense_3/BiasAdd/ReadVariableOp f4 [2]
0	0x3c799a2e	0.015234513
1	0xbc9bd099	-0.019020366

sequential_3/lstm_2/Read_2/ReadVariableOp f4 [400]
0	0x3d29a577	0.041417565
1	0x3d456765	0.048194308
2	0x3c51688c	0.012781274
3	0x3c9cb1eb	0.019127807
4	0x3d8fd0ac	0.07022223
5	0x3d8e63d1	0.06952632
6	0x3d9649f9	0.07338328
7	0x3d121d78	0.035672635
8	0x3cddbd78	0.027067885
9	0x3d0c1981	0.03420401
10	0x3db1870f	0.086683385
11	0xbbe59f82	-0.00700754
12	0x3d300ecd	0.042982865
13	0x3d584247	0.052797582
14	0x3cb40b2a	0.02197798
15	0x3daec601	0.0853386
16	0x3db1becf	0.08678972
17	0xbb16f6ff	-0.0023035405
18	0x3d702d75	0.0586371
19	0x3dcefcb9	0.10106797
20	0x3d77f779	0.060538743
21	0x3d090bab	0.033458393
22	0x3d1dc261	0.038515452
23	0x3dd24b36	0.102682516
24	0x3ddbb722	0.10728289
25	0x3d2abda4	0.04168476
26	0x3cbe13e4	0.023202844
27	0x3d290354	0.04126294
28	0x3d4650e3	0.048416983
29	0x3d871cca	0.06597288
30	0x3c6b4532	0.014359759
31	0x3d7493ec	0.05971138
32	0x3d3ac79b	0.045600515
33	0x3dc82d85	0.09774307
34	0x3d7b490c	0.06134896
35	0x3dd490ea	0.10379203
36	0x3c1e26cd	0.0096528055
37	0x3c87ccaf	0.016577093
38	0x3d2f3b54	0.04278119
39	0x3d4098a4	0.04702057
40	0x3d9acd1f	0.07558655
41	0x3dae4287	0.08508783
42	0x3d99c6f4	0.075086504
43	0x3d5f052a	0.054448284
44	0x3d420080	0.047363758
45	0x3ddecff2	0.10879506
46	0x3d806632	0.06269492
47	0x3daa7ad4	0.08324209
48	0x3bba0a52	0.0056775
49	0x3c16dc16	0.009207746
50	0x3d6512f9	0.055926297
51	0x3dcdda3e	0.10051392
52	0x3bd743ca	0.0065693604
53	0x3d878ba3	0.066184305
54	0x3d16fcfa	0.03686235
55	0x3cc3b3bf	0.02388942
56	0x3d6151f6	0.055009805
57	0x3cedbd86	0.029021036
58	0x3d2790db	0.04090963
59	0x3d9920ba	0.07476945
60	0xbc0046f6	-0.007829418
61	0x3c3f7384	0.011685256
62	0x3dcb9f7b	0.09942528
63	0x3ce7896e	0.028263774
64	0x3d064e6c	0.032789633
65	0x3dc388a3	0.09547546
66	0x3ddce2b1	0.107854255
67	0x3ce6d6ea	0.02817865
68	0x3d91fbbc	0.07128093
69	0x3d41352c	0.04716985
70	0x3da793b2	0.081824675
71	0x3d9d12b8	0.07669586
72	0x3d71a2ee	0.058993272
73	0x3db26be9	0.087119885
74	0x3c90671d	0.017627293
75	0x3d22397e	0.03960561
76	0x3c29291e	0.0103247445
77	0x3db1fab8	0.08690399
78	0x3cad6256	0.021165054
79	0xbc937a58	-0.018002674
80	0x3d2faa95	0.04288729
81	0x3d63d19e	0.05561983
82	0xbbd110d8	-0.0063801818
83	0x3d8ee389	0.06976993
84	0x3d8dee0e	0.06930171
85	0xbc6b44aa	-0.0143596325
86	0x3d229d54	0.03970082
87	0x3d722c06	0.059124015
88	0x3db7307c	0.089447945
89	0x3c8ccb1d	0.017186696
90	0x3d525af4	0.05135627
91	0x3d3c9224	0.046037808
92	0x3c8a8a78	0.01691173
93	0x3d085c79	0.033291314
94	0x3d85b391	0.0652839
95	0x3d8149dc	0.06312916
96	0x3c6032b9	0.013683968
97	0x3d003705	0.03130247
98	0x3c14374f	0.00904639
99	0x3dbd911a	0.092561916
100	0x3f80898f	1.004198
101	0x3f80ec56	1.0072124
102	0x3f800344	1.0000997
103	0x3f7f577b	0.9974286
104	0x3f7f2522	0.99666035
105	0x3f82f3b1	1.0230619
106	0x3f82e54d	1.0226227
107	0x3f81c791	1.0139028
108	0x3f810d91	1.0082265
109	0x3f82381d	1.0173374
110	0x3f81a349	1.0127956
111	0x3f7daf43	0.99095553
112	0x3f817788	1.0114603
113	0x3f831a34	1.0242372
114	0x3f81bcf3	1.0135788
115	0x3f83c298	1.029376
116	0x3f8320dd	1.0244404
117	0x3f7f542b	0.99737805
118	0x3f825c20	1.0184364
119	0x3f8369a6	1.0266616
120	0x3f822580	1.0167694
121	0x3f836b53	1.0267128
122	0x3f8130b6	1.009299
123	0x3f8221a9	1.0166522
124	0x3f832fa5	1.0248915
125	0x3f81ae33	1.0131286
126	0x3f8172cf	1.0113162
127	0x3f814573	1.0099319
128	0x3f81a635	1.0128847
129	0x3f832b06	1.0247505
130	0x3f816f8e	1.0112169
131	0x3f820963	1.0159115
132	0x3f8184c4	1.0118642
133	0x3f813205	1.009339
134	0x3f818034	1.011725
135	0x3f808f29	1.0043689
136	0x3f8001d0	1.0000553
137	0x3f7e1da9	0.9926401
138	0x3f833af7	1.025237
139	0x3f814bf7	1.0101308
140	0x3f822362	1.0167048
141	0x3f82d4c4	1.0221181
142	0x3f826e17	1.0189847
143	0x3f828ced	1.0199257
144	0x3f820986	1.0159156
145	0x3f8256f2	1.0182784
146	0x3f822821	1.0168496
147	0x3f82e9a7	1.0227555
148	0x3f7afced	0.98042184
149	0x3f8039e9	1.0017673
150	0x3f81e2e6	1.0147369
151	0x3f818aed	1.0120522
152	0x3f7f7e89	0.9980245
153	0x3f813d4d	1.0096833
154	0x3f817e5d	1.0116688
155	0x3f7f5c1c	0.9974992
156	0x3f81786d	1.0114876
157	0x3f8178bd	1.0114971
158	0x3f8124df	1.0089377
159	0x3f821575	1.0162798
160	0x3f7a6de3	0.97823924
161	0x3f7f687a	0.99768794
162	0x3f836b3b	1.0267099
163	0x3f7ef279	0.99588734
164	0x3f7fd6ed	0.99937326
165	0x3f827d95	1.0194575
166	0x3f81da88	1.0144815
167	0x3f7edf56	0.99559534
168	0x3f817deb	1.0116552
169	0x3f81b141	1.0132219
170	0x3f8309c8	1.023736
171	0x3f819c48	1.0125818
172	0x3f8274d1	1.01919
173	0x3f833445	1.0250326
174	0x3f8047d0	1.0021915
175	0x3f81bf75	1.0136553
176	0x3f830908	1.0237131
177	0x3f821b08	1.0164499
178	0x3f847b1a	1.0350068
179	0x3f82026c	1.0156989
180	0x3f81acd4	1.0130868
181	0x3f84db3f	1.0379409
182	0x3f7e4214	0.9931958
183	0x3f82ded9	1.0224258
184	0x3f82d184	1.0220189
185	0x3f7a4385	0.97759277
186	0x3f832e9f	1.0248603
187	0x3f81ee16	1.0150783
188	0x3f828aaa	1.0198567
189	0x3f815100	1.0102844
190	0x3f81c7c4	1.0139089
191	0x3f80615f	1.0029715
192	0x3f81b58c	1.0133529
193	0x3f804728	1.0021715
194	0x3f82a429	1.0206348
195	0x3f81fcbc	1.0155253
196	0x3f80397f	1.0017546
197	0x3f8015a4	1.0006604
198	0x3f7f863a	0.9981419
199	0x3f80e5bc	1.0070109
200	0xbcfc40e8	-0.030792668
201	0xbc5b93ca	-0.013401935
202	0x3c6a197b	0.014288302
203	0x3c4a5baa	0.012350956
204	0xbba93db4	-0.0051648263
205	0x3c13f8f8	0.009031527
206	0xba177dfa	-0.0005778965
207	0x3bb8c5da	0.00563882
208	0xbd8752b0	-0.06607568
209	0x3c8fcf9e	0.017555054
210	0x3c1af6a0	0.009458214
211	0x3c1f57d8	0.009725533
212	0x3c45f446	0.012082165
213	0x3ac6d7e3	0.001517054
214	0xbc43677f	-0.011926531
215	0xbc7b64bd	-0.015343842
216	0x3c172c80	0.009226918
217	0xbc30cfcd	-0.010791731
218	0xbc543889	-0.012952932
219	0x3b7cfe76	0.003860382
220	0xbc74de63	-0.014945599
221	0x3b68a8f1	0.0035501088
222	0xbb82aa81	-0.003987611
223	0xbb675da9	-0.0035303629
224	0xbc51eef3	-0.012813318
225	0x3c416434	0.011803675
226	0x3ac667e1	0.001513716
227	0xbc104483	-0.008805397
228	0x3c51c3e1	0.012803049
229	0x3bceb52c	0.0063082185
230	0xba9fc987	-0.0012190797
231	0xbc12d62d	-0.008962196
232	0xbc3bb484	-0.0114566125
233	0x3c00f83c	0.007871684
234	0xbc24ffa4	-0.010070715
235	0xbbc9a073	-0.0061531602
236	0xbc03f2dc	-0.008053508
237	0x3bbf4457	0.005837004
238	0xbc62d5f8	-0.013844959
239	0x3c8a6b33	0.01689682
240	0xbb1b9d58	-0.0023744907
241	0xbc81982d	-0.015819633
242	0x3ccda426	0.025102686
243	0xbc15580d	-0.009115231
244	0xbc8447ef	-0.016147582
245	0xbc3e250d	-0.011605513
246	0x3bce8c54	0.0063033495
247	0xbc2e1d51	-0.010627107
248	0x3c4efa8d	0.012632978
249	0x3c63d30d	0.013905299
250	0x3c18c0c8	0.009323306
251	0xbc0069ec	-0.007837754
252	0x3c14d12b	0.009083073
253	0xba6d56f3	-0.0009053789
254	0xbc39d0c1	-0.011341275
255	0x3c7295c4	0.014806215

sequential_3/embedding_2/embedding_lookup i1 [10000, 64] scale=0.0016593162 zero_point=0
0	0x0b	0.018252479
1	0xf3	-0.021571111
2	0xec	-0.033186324
3	0xee	-0.029867692
4	0xe9	-0.038164273
5	0xf3	-0.021571111
6	0x0b	0.018252479
7	0xe7	-0.041482907
8	0x24	0.059735384
9	0xea	-0.036504958
10	0x04	0.006637265
11	0x10	0.02654906
12	0xf1	-0.024889743
13	0xee	-0.029867692
14	0x0d	0.021571111
15	0xf3	-0.021571111
16	0xe5	-0.044801537
17	0x18	0.03982359
18	0x0c	0.019911796
19	0xf8	-0.01327453
20	0x14	0.033186324
21	0xfa	-0.009955898
22	0xf3	-0.021571111
23	0x04	0.006637265
24	0xed	-0.03152701
25	0x15	0.034845643
26	0x08	0.01327453
27	0xfd	-0.004977949
28	0x06	0.009955898
29	0x07	0.011615214
30	0xf8	-0.01327453
31	0xff	-0.0016593162
32	0x13	0.03152701
33	0xee	-0.029867692
34	0xf8	-0.01327453
35	0xf8	-0.01327453
36	0xfc	-0.006637265
37	0x02	0.0033186325
38	0x03	0.004977949
39	0x02	0.0033186325
40	0x01	0.0016593162
41	0x10	0.02654906
42	0xed	-0.03152701
43	0x01	0.0016593162
44	0xf8	-0.01327453
45	0xfb	-0.008296581
46	0x19	0.041482907
47	0xf3	-0.021571111
48	0xf6	-0.016593162
49	0xf7	-0.014933846
50	0xf0	-0.02654906
51	0x19	0.041482907
52	0x0b	0.018252479
53	0xe9	-0.038164273
54	0xec	-0.033186324
55	0xf5	-0.018252479
56	0xfa	-0.009955898
57	0xf9	-0.011615214
58	0xf2	-0.023230428
59	0xee	-0.029867692
60	0x13	0.03152701
61	0xe1	-0.051438805
62	0x03	0.004977949
63	0xf3	-0.021571111
64	0x0b	0.018252479
65	0x18	0.03982359
66	0x03	0.004977949
67	0xe8	-0.03982359
68	0x16	0.036504958
69	0x0e	0.023230428
70	0x18	0.03982359
71	0xe5	-0.044801537
72	0x11	0.028208377
73	0x18	0.03982359
74	0x16	0.036504958
75	0xfe	-0.0033186325
76	0xed	-0.03152701
77	0xe3	-0.04812017
78	0x1d	0.04812017
79	0xff	-0.0016593162
80	0x05	0.008296581
81	0xf6	-0.016593162
82	0xfb	-0.008296581
83	0x0b	0.018252479
84	0x02	0.0033186325
85	0x1c	0.046460856
86	0x18	0.03982359
87	0xe3	-0.04812017
88	0x22	0.056416754
89	0x12	0.029867692
90	0x19	0.041482907
91	0x16	0.036504958
92	0x05	0.008296581
93	0xfc	-0.006637265
94	0xfd	-0.004977949
95	0xf6	-0.016593162
96	0x1b	0.044801537
97	0x07	0.011615214
98	0x11	0.028208377
99	0x1b	0.044801537
100	0xf0	-0.02654906
101	0x05	0.008296581
102	0xea	-0.036504958
103	0x0c	0.019911796
104	0x1b	0.044801537
105	0xf9	-0.011615214
106	0xf8	-0.01327453
107	0x01	0.0016593162
108	0x17	0.038164273
109	0x19	0.041482907
110	0xf0	-0.02654906
111	0x1d	0.04812017
112	0x0f	0.024889743
113	0x05	0.008296581
114	0xf1	-0.024889743
115	0xe0	-0.05309812
116	0xeb	-0.034845643
117	0xf6	-0.016593162
118	0xfc	-0.006637265
119	0x12	0.029867692
120	0xf8	-0.01327453
121	0xf7	-0.014933846
122	0xe7	-0.041482907
123	0xd8	-0.06637265
124	0xf1	-0.024889743
125	0x19	0.041482907
126	0x1c	0.046460856
127	0xe5	-0.044801537
128	0x2b	0.0713506
129	0xe2	-0.049779486
130	0xdc	-0.059735384
131	0xf5	-0.018252479
132	0xee	-0.029867692
133	0xc7	-0.09458102
134	0x2a	0.069691285
135	0xfb	-0.008296581
136	0xec	-0.033186324
137	0xf8	-0.01327453
138	0x10	0.02654906
139	0xcf	-0.081306495
140	0xd6	-0.069691285
141	0xcb	-0.08794376
142	0x44	0.11283351
143	0x13	0.03152701
144	0x42	0.10951487
145	0x20	0.05309812
146	0x01	0.0016593162
147	0xc8	-0.09292171
148	0x23	0.05807607
149	0xe2	-0.049779486
150	0xec	-0.033186324
151	0xd4	-0.073009916
152	0x36	0.089603074
153	0x30	0.07964718
154	0xd9	-0.06471334
155	0x21	0.054757435
156	0xdb	-0.061394703
157	0x04	0.006637265
158	0x09	0.014933846
159	0x0b	0.018252479
160	0x29	0.06803197
161	0xd2	-0.076328546
162	0x13	0.03152701
163	0x13	0.03152701
164	0x37	0.09126239
165	0xe4	-0.046460856
166	0x04	0.006637265
167	0x25	0.061394703
168	0x2d	0.074669234
169	0xc8	-0.09292171
170	0x2e	0.076328546
171	0x0c	0.019911796
172	0xec	-0.033186324
173	0xff	-0.0016593162
174	0xf1	-0.024889743
175	0x14	0.033186324
176	0x24	0.059735384
177	0x15	0.034845643
178	0xd6	-0.069691285
179	0xcc	-0.086284444
180	0xd0	-0.07964718
181	0xf6	-0.016593162
182	0xf8	-0.01327453
183	0xf0	-0.02654906
184	0x2f	0.077987865
185	0xcb	-0.08794376
186	0xe2	-0.049779486
187	0xee	-0.029867692
188	0x29	0.06803197
189	0x18	0.03982359
190	0x09	0.014933846
191	0xca	-0.089603074
192	0xec	-0.033186324
193	0xfa	-0.009955898
194	0xfd	-0.004977949
195	0xf0	-0.02654906
196	0xef	-0.028208377
197	0x0b	0.018252479
198	0x0b	0.018252479
199	0x03	0.004977949
200	0xf3	-0.021571111
201	0xfa	-0.009955898
202	0xfb	-0.008296581
203	0x06	0.009955898
204	0x01	0.0016593162
205	0x0a	0.016593162
206	0x05	0.008296581
207	0xf4	-0.019911796
208	0xe6	-0.043142222
209	0x14	0.033186324
210	0x1b	0.044801537
211	0x1d	0.04812017
212	0xfa	-0.009955898
213	0xee	-0.029867692
214	0x1a	0.043142222
215	0x11	0.028208377
216	0xed	-0.03152701
217	0xeb	-0.034845643
218	0xfb	-0.008296581
219	0xec	-0.033186324
220	0x00	0.0
221	0xfb	-0.008296581
222	0xeb	-0.034845643
223	0xfa	-0.009955898
224	0xea	-0.036504958
225	0xe8	-0.03982359
226	0xea	-0.036504958
227	0xfe	-0.0033186325
228	0x02	0.0033186325
229	0x13	0.03152701
230	0xf4	-0.019911796
231	0xea	-0.036504958
232	0x17	0.038164273
233	0xec	-0.033186324
234	0xf5	-0.018252479
235	0x1a	0.043142222
236	0xe6	-0.043142222
237	0xf5	-0.018252479
238	0xf5	-0.018252479
239	0xf2	-0.023230428
240	0xf9	-0.011615214
241	0x0e	0.023230428
242	0x01	0.0016593162
243	0x0e	0.023230428
244	0x11	0.028208377
245	0xe7	-0.041482907
246	0x0f	0.024889743
247	0xff	-0.0016593162
248	0xf4	-0.019911796
249	0x08	0.01327453
250	0xf1	-0.024889743
251	0xf4	-0.019911796
252	0xf2	-0.023230428
253	0x1d	0.04812017
254	0xe7	-0.041482907
255	0x00	0.0

sequential_3/lstm_2/Read_2/ReadVariableOp1 f4 [400]
0	0x3d29a577	0.041417565
1	0x3d456765	0.048194308
2	0x3c51688c	0.012781274
3	0x3c9cb1eb	0.019127807
4	0x3d8fd0ac	0.07022223
5	0x3d8e63d1	0.06952632
6	0x3d9649f9	0.07338328
7	0x3d121d78	0.035672635
8	0x3cddbd78	0.027067885
9	0x3d0c1981	0.03420401
10	0x3db1870f	0.086683385
11	0xbbe59f82	-0.00700754
12	0x3d300ecd	0.042982865
13	0x3d584247	0.052797582
14	0x3cb40b2a	0.02197798
15	0x3daec601	0.0853386
16	0x3db1becf	0.08678972
17	0xbb16f6ff	-0.0023035405
18	0x3d702d75	0.0586371
19	0x3dcefcb9	0.10106797
20	0x3d77f779	0.060538743
21	0x3d090bab	0.033458393
22	0x3d1dc261	0.038515452
23	0x3dd24b36	0.102682516
24	0x3ddbb722	0.10728289
25	0x3d2abda4	0.04168476
26	0x3cbe13e4	0.023202844
27	0x3d290354	0.04126294
28	0x3d4650e3	0.048416983
29	0x3d871cca	0.06597288
30	0x3c6b4532	0.014359759
31	0x3d7493ec	0.05971138
32	0x3d3ac79b	0.045600515
33	0x3dc82d85	0.09774307
34	0x3d7b490c	0.06134896
35	0x3dd490ea	0.10379203
36	0x3c1e26cd	0.0096528055
37	0x3c87ccaf	0.016577093
38	0x3d2f3b54	0.04278119
39	0x3d4098a4	0.04702057
40	0x3d9acd1f	0.07558655
41	0x3dae4287	0.08508783
42	0x3d99c6f4	0.075086504
43	0x3d5f052a	0.054448284
44	0x3d420080	0.047363758
45	0x3ddecff2	0.10879506
46	0x3d806632	0.06269492
47	0x3daa7ad4	0.08324209
48	0x3bba0a52	0.0056775
49	0x3c16dc16	0.009207746
50	0x3d6512f9	0.055926297
51	0x3dcdda3e	0.10051392
52	0x3bd743ca	0.0065693604
53	0x3d878ba3	0.066184305
54	0x3d16fcfa	0.03686235
55	0x3cc3b3bf	0.02388942
56	0x3d6151f6	0.055009805
57	0x3cedbd86	0.029021036
58	0x3d2790db	0.04090963
59	0x3d9920ba	0.07476945
60	0xbc0046f6	-0.007829418
61	0x3c3f7384	0.011685256
62	0x3dcb9f7b	0.09942528
63	0x3ce7896e	0.028263774
64	0x3d064e6c	0.032789633
65	0x3dc388a3	0.09547546
66	0x3ddce2b1	0.107854255
67	0x3ce6d6ea	0.02817865
68	0x3d91fbbc	0.07128093
69	0x3d41352c	0.04716985
70	0x3da793b2	0.081824675
71	0x3d9d12b8	0.07669586
72	0x3d71a2ee	0.058993272
73	0x3db26be9	0.087119885
74	0x3c90671d	0.017627293
75	0x3d22397e	0.03960561
76	0x3c29291e	0.0103247445
77	0x3db1fab8	0.08690399
78	0x3cad6256	0.021165054
79	0xbc937a58	-0.018002674
80	0x3d2faa95	0.04288729
81	0x3d63d19e	0.05561983
82	0xbbd110d8	-0.0063801818
83	0x3d8ee389	0.06976993
84	0x3d8dee0e	0.06930171
85	0xbc6b44aa	-0.0143596325
86	0x3d229d54	0.03970082
87	0x3d722c06	0.059124015
88	0x3db7307c	0.089447945
89	0x3c8ccb1d	0.017186696
90	0x3d525af4	0.05135627
91	0x3d3c9224	0.046037808
92	0x3c8a8a78	0.01691173
93	0x3d085c79	0.033291314
94	0x3d85b391	0.0652839
95	0x3d8149dc	0.06312916
96	0x3c6032b9	0.013683968
97	0x3d003705	0.03130247
98	0x3c14374f	0.00904639
99	0x3dbd911a	0.092561916
100	0x3f80898f	1.004198
101	0x3f80ec56	1.0072124
102	0x3f800344	1.0000997
103	0x3f7f577b	0.9974286
104	0x3f7f2522	0.99666035
105	0x3f82f3b1	1.0230619
106	0x3f82e54d	1.0226227
107	0x3f81c791	1.0139028
108	0x3f810d91	1.0082265
109	0x3f82381d	1.0173374
110	0x3f81a349	1.0127956
111	0x3f7daf43	0.99095553
112	0x3f817788	1.0114603
113	0x3f831a34	1.0242372
114	0x3f81bcf3	1.0135788
115	0x3f83c298	1.029376
116	0x3f8320dd	1.0244404
117	0x3f7f542b	0.99737805
118	0x3f825c20	1.0184364
119	0x3f8369a6	1.0266616
120	0x3f822580	1.0167694
121	0x3f836b53	1.0267128
122	0x3f8130b6	1.009299
123	0x3f8221a9	1.0166522
124	0x3f832fa5	1.0248915
125	0x3f81ae33	1.0131286
126	0x3f8172cf	1.0113162
127	0x3f814573	1.0099319
128	0x3f81a635	1.0128847
129	0x3f832b06	1.0247505
130	0x3f816f8e	1.0112169
131	0x3f820963	1.0159115
132	0x3f8184c4	1.0118642
133	0x3f813205	1.009339
134	0x3f818034	1.011725
135	0x3f808f29	1.0043689
136	0x3f8001d0	1.0000553
137	0x3f7e1da9	0.9926401
138	0x3f833af7	1.025237
139	0x3f814bf7	1.0101308
140	0x3f822362	1.0167048
141	0x3f82d4c4	1.0221181
142	0x3f826e17	1.0189847
143	0x3f828ced	1.0199257
144	0x3f820986	1.0159156
145	0x3f8256f2	1.0182784
146	0x3f822821	1.0168496
147	0x3f82e9a7	1.0227555
148	0x3f7afced	0.98042184
149	0x3f8039e9	1.0017673
150	0x3f81e2e6	1.0147369
151	0x3f818aed	1.0120522
152	0x3f7f7e89	0.9980245
153	0x3f813d4d	1.0096833
154	0x3f817e5d	1.0116688
155	0x3f7f5c1c	0.9974992
156	0x3f81786d	1.0114876
157	0x3f8178bd	1.0114971
158	0x3f8124df	1.0089377
159	0x3f821575	1.0162798
160	0x3f7a6de3	0.97823924
161	0x3f7f687a	0.99768794
162	0x3f836b3b	1.0267099
163	0x3f7ef279	0.99588734
164	0x3f7fd6ed	0.99937326
165	0x3f827d95	1.0194575
166	0x3f81da88	1.0144815
167	0x3f7edf56	0.99559534
168	0x3f817deb	1.0116552
169	0x3f81b141	1.0132219
170	0x3f8309c8	1.023736
171	0x3f819c48	1.0125818
172	0x3f8274d1	1.01919
173	0x3f833445	1.0250326
174	0x3f8047d0	1.0021915
175	0x3f81bf75	1.0136553
176	0x3f830908	1.0237131
177	0x3f821b08	1.0164499
178	0x3f847b1a	1.0350068
179	0x3f82026c	1.0156989
180	0x3f81acd4	1.0130868
181	0x3f84db3f	1.0379409
182	0x3f7e4214	0.9931958
183	0x3f82ded9	1.0224258
184	0x3f82d184	1.0220189
185	0x3f7a4385	0.97759277
186	0x3f832e9f	1.0248603
187	0x3f81ee16	1.0150783
188	0x3f828aaa	1.0198567
189	0x3f815100	1.0102844
190	0x3f81c7c4	1.0139089
191	0x3f80615f	1.0029715
192	0x3f81b58c	1.0133529
193	0x3f804728	1.0021715
194	0x3f82a429	1.0206348
195	0x3f81fcbc	1.0155253
196	0x3f80397f	1.0017546
197	0x3f8015a4	1.0006604
198	0x3f7f863a	0.9981419
199	0x3f80e5bc	1.0070109
200	0xbcfc40e8	-0.030792668
201	0xbc5b93ca	-0.013401935
202	0x3c6a197b	0.014288302
203	0x3c4a5baa	0.012350956
204	0xbba93db4	-0.0051648263
205	0x3c13f8f8	0.009031527
206	0xba177dfa	-0.0005778965
207	0x3bb8c5da	0.00563882
208	0xbd8752b0	-0.06607568
209	0x3c8fcf9e	0.017555054
210	0x3c1af6a0	0.009458214
211	0x3c1f57d8	0.009725533
212	0x3c45f446	0.012082165
213	0x3ac6d7e3	0.001517054
214	0xbc43677f	-0.011926531
215	0xbc7b64bd	-0.015343842
216	0x3c172c80	0.009226918
217	0xbc30cfcd	-0.010791731
218	0xbc543889	-0.012952932
219	0x3b7cfe76	0.003860382
220	0xbc74de63	-0.014945599
221	0x3b68a8f1	0.0035501088
222	0xbb82aa81	-0.003987611
223	0xbb675da9	-0.0035303629
224	0xbc51eef3	-0.012813318
225	0x3c416434	0.011803675
226	0x3ac667e1	0.001513716
227	0xbc104483	-0.008805397
228	0x3c51c3e1	0.012803049
229	0x3bceb52c	0.0063082185
230	0xba9fc987	-0.0012190797
231	0xbc12d62d	-0.008962196
232	0xbc3bb484	-0.0114566125
233	0x3c00f83c	0.007871684
234	0xbc24ffa4	-0.010070715
235	0xbbc9a073	-0.0061531602
236	0xbc03f2dc	-0.008053508
237	0x3bbf4457	0.005837004
238	0xbc62d5f8	-0.013844959
239	0x3c8a6b33	0.01689682
240	0xbb1b9d58	-0.0023744907
241	0xbc81982d	-0.015819633
242	0x3ccda426	0.025102686
243	0xbc15580d	-0.009115231
244	0xbc8447ef	-0.016147582
245	0xbc3e250d	-0.011605513
246	0x3bce8c54	0.0063033495
247	0xbc2e1d51	-0.010627107
248	0x3c4efa8d	0.012632978
249	0x3c63d30d	0.013905299
250	0x3c18c0c8	0.009323306
251	0xbc0069ec	-0.007837754
252	0x3c14d12b	0.009083073
253	0xba6d56f3	-0.0009053789
254	0xbc39d0c1	-0.011341275
255	0x3c7295c4	0.014806215

while/MatMul_11 i1 [400, 100] scale=0.0021782839 zero_point=0
0	0xeb	-0.04574396
1	0x10	0.034852542
2	0x0f	0.032674257
3	0xee	-0.03920911
4	0x1f	0.0675268
5	0x12	0.03920911
6	0x12	0.03920911
7	0x1a	0.05663538
8	0xf6	-0.021782838
9	0x03	0.0065348516
10	0x05	0.010891419
11	0x30	0.104557626
12	0x1b	0.058813665
13	0xe3	-0.06317023
14	0xe2	-0.06534851
15	0x09	0.019604554
16	0x0a	0.021782838
17	0xd7	-0.08930964
18	0x25	0.08059651
19	0xe9	-0.050100528
20	0x1c	0.06099195
21	0xb9	-0.15465815
22	0x3c	0.13069703
23	0x05	0.010891419
24	0xf2	-0.030495975
25	0xff	-0.0021782839
26	0x2d	0.098022774
27	0xd4	-0.09584449
28	0xfa	-0.013069703
29	0x09	0.019604554
30	0x22	0.074061655
31	0x1a	0.05663538
32	0x17	0.050100528
33	0xf3	-0.02831769
34	0x2f	0.102379344
35	0x16	0.047922246
36	0x07	0.015247988
37	0xfc	-0.0087131355
38	0xf6	-0.021782838
39	0x24	0.07841822
40	0x05	0.010891419
41	0xe3	-0.06317023
42	0xf9	-0.015247988
43	0x31	0.10673591
44	0x2e	0.100201055
45	0xea	-0.047922246
46	0x00	0.0
47	0xe8	-0.052278813
48	0x19	0.0544571
49	0xf8	-0.017426271
50	0x2e	0.100201055
51	0xe9	-0.050100528
52	0xe1	-0.0675268
53	0xff	-0.0021782839
54	0xf8	-0.017426271
55	0xed	-0.041387394
56	0xf4	-0.026139406
57	0x24	0.07841822
58	0xe3	-0.06317023
59	0xf9	-0.015247988
60	0x1f	0.0675268
61	0xf7	-0.019604554
62	0x12	0.03920911
63	0x1e	0.06534851
64	0x1b	0.058813665
65	0x24	0.07841822
66	0x0a	0.021782838
67	0x00	0.0
68	0xf1	-0.032674257
69	0xfd	-0.0065348516
70	0xfc	-0.0087131355
71	0xe6	-0.05663538
72	0x01	0.0021782839
73	0x21	0.071883366
74	0x24	0.07841822
75	0xf3	-0.02831769
76	0xf4	-0.026139406
77	0x1d	0.06317023
78	0xe2	-0.06534851
79	0xb8	-0.15683644
80	0xed	-0.041387394
81	0xe8	-0.052278813
82	0x19	0.0544571
83	0x1e	0.06534851
84	0xf1	-0.032674257
85	0x09	0.019604554
86	0x09	0.019604554
87	0x21	0.071883366
88	0xf5	-0.023961123
89	0xf0	-0.034852542
90	0x1a	0.05663538
91	0xfb	-0.010891419
92	0x18	0.052278813
93	0x01	0.0021782839
94	0x02	0.0043565677
95	0xfd	-0.0065348516
96	0x01	0.0021782839
97	0xc6	-0.12634046
98	0x27	0.08495307
99	0x0c	0.026139406
100	0x17	0.050100528
101	0xfb	-0.010891419
102	0xfa	-0.013069703
103	0xf2	-0.030495975
104	0xeb	-0.04574396
105	0x08	0.017426271
106	0x01	0.0021782839
107	0x18	0.052278813
108	0xef	-0.037030827
109	0xf3	-0.02831769
110	0xdc	-0.07841822
111	0xe7	-0.0544571
112	0x1f	0.0675268
113	0x16	0.047922246
114	0x04	0.0087131355
115	0xc3	-0.13287532
116	0x04	0.0087131355
117	0x2c	0.09584449
118	0xdd	-0.076239936
119	0x00	0.0
120	0xfe	-0.0043565677
121	0xe1	-0.0675268
122	0x0a	0.021782838
123	0xf6	-0.021782838
124	0xf5	-0.023961123
125	0xfb	-0.010891419
126	0x1c	0.06099195
127	0xf1	-0.032674257
128	0x1d	0.06317023
129	0xf3	-0.02831769
130	0x12	0.03920911
131	0xf8	-0.017426271
132	0xfd	-0.0065348516
133	0x02	0.0043565677
134	0x10	0.034852542
135	0xf4	-0.026139406
136	0xf7	-0.019604554
137	0xd0	-0.104557626
138	0xfb	-0.010891419
139	0x32	0.1089142
140	0x16	0.047922246
141	0xcf	-0.10673591
142	0xdf	-0.071883366
143	0x19	0.0544571
144	0x2f	0.102379344
145	0xca	-0.11762733
146	0x0e	0.030495975
147	0xef	-0.037030827
148	0x28	0.08713135
149	0xe4	-0.06099195
150	0xf9	-0.015247988
151	0xea	-0.047922246
152	0xff	-0.0021782839
153	0x05	0.010891419
154	0x11	0.037030827
155	0x21	0.071883366
156	0x05	0.010891419
157	0xf7	-0.019604554
158	0x04	0.0087131355
159	0x1d	0.06317023
160	0xdb	-0.08059651
161	0xf2	-0.030495975
162	0x10	0.034852542
163	0x0a	0.021782838
164	0xff	-0.0021782839
165	0x2c	0.09584449
166	0xf3	-0.02831769
167	0x03	0.0065348516
168	0x15	0.04574396
169	0x01	0.0021782839
170	0xe9	-0.050100528
171	0x17	0.050100528
172	0xd9	-0.08495307
173	0x15	0.04574396
174	0xc2	-0.1350536
175	0x0e	0.030495975
176	0xe2	-0.06534851
177	0x01	0.0021782839
178	0x09	0.019604554
179	0xe7	-0.0544571
180	0x1f	0.0675268
181	0xdb	-0.08059651
182	0x04	0.0087131355
183	0xdb	-0.08059651
184	0x14	0.043565676
185	0xd1	-0.102379344
186	0x15	0.04574396
187	0x18	0.052278813
188	0x13	0.041387394
189	0xe4	-0.06099195
190	0x09	0.019604554
191	0x4a	0.16119301
192	0xf9	-0.015247988
193	0xce	-0.1089142
194	0xf6	-0.021782838
195	0xd3	-0.098022774
196	0x29	0.08930964
197	0xe7	-0.0544571
198	0x05	0.010891419
199	0xf3	-0.02831769
200	0xef	-0.037030827
201	0xe8	-0.052278813
202	0xfe	-0.0043565677
203	0xff	-0.0021782839
204	0x26	0.08277479
205	0xeb	-0.04574396
206	0x0a	0.021782838
207	0x09	0.019604554
208	0xc0	-0.13941017
209	0x18	0.052278813
210	0xf9	-0.015247988
211	0x05	0.010891419
212	0x10	0.034852542
213	0x06	0.013069703
214	0xef	-0.037030827
215	0x1a	0.05663538
216	0xd3	-0.098022774
217	0xff	-0.0021782839
218	0x02	0.0043565677
219	0x11	0.037030827
220	0x07	0.015247988
221	0xe5	-0.058813665
222	0x01	0.0021782839
223	0x17	0.050100528
224	0xf8	-0.017426271
225	0x2a	0.09148792
226	0xeb	-0.04574396
227	0xf7	-0.019604554
228	0x3a	0.12634046
229	0xf7	-0.019604554
230	0xf2	-0.030495975
231	0x19	0.0544571
232	0xf5	-0.023961123
233	0x07	0.015247988
234	0x04	0.0087131355
235	0x0b	0.023961123
236	0x28	0.08713135
237	0xec	-0.043565676
238	0xf8	-0.017426271
239	0xfe	-0.0043565677
240	0x03	0.0065348516
241	0x1b	0.058813665
242	0xed	-0.041387394
243	0xf8	-0.017426271
244	0x16	0.047922246
245	0xee	-0.03920911
246	0x0f	0.032674257
247	0x1a	0.05663538
248	0x15	0.04574396
249	0xea	-0.047922246
250	0xed	-0.041387394
251	0xdc	-0.07841822
252	0x1b	0.058813665
253	0xed	-0.041387394
254	0xea	-0.047922246
255	0xf9	-0.015247988

while/MatMul i1 [400, 64] scale=0.0031918646 zero_point=0
0	0xcb	-0.16916883
1	0x1d	0.092564076
2	0x20	0.10213967
3	0x14	0.06383729
4	0x14	0.06383729
5	0x2c	0.14044204
6	0xe4	-0.08937221
7	0xfc	-0.012767458
8	0x67	0.32876205
9	0x34	0.16597696
10	0xa6	-0.2872678
11	0x35	0.16916883
12	0x06	0.019151188
13	0x09	0.02872678
14	0xd1	-0.15001763
15	0xa9	-0.27769223
16	0xbe	-0.21066307
17	0xed	-0.060645428
18	0xc3	-0.19470374
19	0x32	0.15959322
20	0xe3	-0.092564076
21	0x1f	0.0989478
22	0x20	0.10213967
23	0x2b	0.13725017
24	0xd0	-0.15320951
25	0xc9	-0.17555255
26	0x4a	0.23619798
27	0xef	-0.0542617
28	0x14	0.06383729
29	0xec	-0.06383729
30	0xdb	-0.11809899
31	0xba	-0.22343051
32	0xf4	-0.038302377
33	0x45	0.22023866
34	0xb2	-0.24896544
35	0xd1	-0.15001763
36	0xd2	-0.14682578
37	0x44	0.2170468
38	0x55	0.27130848
39	0xb3	-0.24577357
40	0xc5	-0.18832001
41	0x2d	0.1436339
42	0xd1	-0.15001763
43	0xd2	-0.14682578
44	0x44	0.2170468
45	0x17	0.07341289
46	0x32	0.15959322
47	0xa4	-0.29365155
48	0xe7	-0.07979661
49	0xbb	-0.22023866
50	0x33	0.1627851
51	0x28	0.12767458
52	0x22	0.1085234
53	0x00	0.0
54	0xf6	-0.031918645
55	0x1e	0.095755935
56	0xee	-0.05745356
57	0x4c	0.24258171
58	0x2d	0.1436339
59	0xd1	-0.15001763
60	0xfe	-0.006383729
61	0xab	-0.27130848
62	0xb9	-0.22662239
63	0x10	0.051069833
64	0x1c	0.08937221
65	0x0d	0.04149424
66	0xee	-0.05745356
67	0xf9	-0.022343053
68	0x16	0.07022102
69	0x16	0.07022102
70	0xf6	-0.031918645
71	0xf6	-0.031918645
72	0xf3	-0.04149424
73	0xfa	-0.019151188
74	0x19	0.07979661
75	0x20	0.10213967
76	0x07	0.022343053
77	0xf9	-0.022343053
78	0x12	0.05745356
79	0xee	-0.05745356
80	0xf9	-0.022343053
81	0xf0	-0.051069833
82	0xe9	-0.07341289
83	0x29	0.13086645
84	0xfb	-0.015959322
85	0xf7	-0.02872678
86	0x09	0.02872678
87	0xfc	-0.012767458
88	0xef	-0.0542617
89	0x13	0.060645428
90	0xf1	-0.047877967
91	0xfd	-0.009575594
92	0x21	0.10533153
93	0xf9	-0.022343053
94	0xe6	-0.08298848
95	0x14	0.06383729
96	0xf4	-0.038302377
97	0xf7	-0.02872678
98	0xdd	-0.11171526
99	0xf1	-0.047877967
100	0xf8	-0.025534917
101	0x04	0.012767458
102	0xe5	-0.086180344
103	0xdf	-0.10533153
104	0xd9	-0.12448272
105	0x05	0.015959322
106	0xd7	-0.13086645
107	0x02	0.006383729
108	0xf8	-0.025534917
109	0x16	0.07022102
110	0xe8	-0.076604754
111	0x27	0.12448272
112	0xfc	-0.012767458
113	0xf0	-0.051069833
114	0x0e	0.044686105
115	0x08	0.025534917
116	0x0c	0.038302377
117	0x17	0.07341289
118	0xfc	-0.012767458
119	0x16	0.07022102
120	0xfe	-0.006383729
121	0x12	0.05745356
122	0x16	0.07022102
123	0xda	-0.121290855
124	0xdc	-0.11490712
125	0x16	0.07022102
126	0xee	-0.05745356
127	0x03	0.009575594
128	0x18	0.076604754
129	0x1f	0.0989478
130	0xed	-0.060645428
131	0xe7	-0.07979661
132	0x0e	0.044686105
133	0xe3	-0.092564076
134	0x17	0.07341289
135	0xfc	-0.012767458
136	0x13	0.060645428
137	0x26	0.121290855
138	0xff	-0.0031918646
139	0x2b	0.13725017
140	0x1c	0.08937221
141	0xf4	-0.038302377
142	0xfb	-0.015959322
143	0xcc	-0.16597696
144	0xe1	-0.0989478
145	0xfe	-0.006383729
146	0x02	0.006383729
147	0xf2	-0.044686105
148	0xfd	-0.009575594
149	0x21	0.10533153
150	0x1f	0.0989478
151	0x29	0.13086645
152	0x07	0.022343053
153	0xf3	-0.04149424
154	0x0b	0.03511051
155	0x11	0.0542617
156	0xf7	-0.02872678
157	0x09	0.02872678
158	0xdd	-0.11171526
159	0x1a	0.08298848
160	0xfb	-0.015959322
161	0x1c	0.08937221
162	0xf3	-0.04149424
163	0xe6	-0.08298848
164	0xff	-0.0031918646
165	0xf9	-0.022343053
166	0x1b	0.086180344
167	0xdd	-0.11171526
168	0x1a	0.08298848
169	0x0f	0.047877967
170	0xd1	-0.15001763
171	0x04	0.012767458
172	0x03	0.009575594
173	0x0a	0.031918645
174	0x17	0.07341289
175	0xe0	-0.10213967
176	0x09	0.02872678
177	0x04	0.012767458
178	0xf1	-0.047877967
179	0x2f	0.15001763
180	0x04	0.012767458
181	0xfe	-0.006383729
182	0xe1	-0.0989478
183	0xf7	-0.02872678
184	0xf8	-0.025534917
185	0xe1	-0.0989478
186	0xed	-0.060645428
187	0x08	0.025534917
188	0xe2	-0.095755935
189	0xf4	-0.038302377
190	0xfc	-0.012767458
191	0x0e	0.044686105
192	0xfa	-0.019151188
193	0x23	0.11171526
194	0xe9	-0.07341289
195	0x29	0.13086645
196	0xed	-0.060645428
197	0x17	0.07341289
198	0xef	-0.0542617
199	0xf0	-0.051069833
200	0x12	0.05745356
201	0x19	0.07979661
202	0xe5	-0.086180344
203	0x3d	0.19470374
204	0x24	0.11490712
205	0x1e	0.095755935
206	0xdc	-0.11490712
207	0xc3	-0.19470374
208	0xe1	-0.0989478
209	0xe2	-0.095755935
210	0xf3	-0.04149424
211	0xfc	-0.012767458
212	0xcf	-0.15640137
213	0xef	-0.0542617
214	0x0f	0.047877967
215	0xfa	-0.019151188
216	0xe4	-0.08937221
217	0xee	-0.05745356
218	0xfe	-0.006383729
219	0x0f	0.047877967
220	0x30	0.15320951
221	0xed	-0.060645428
222	0xd2	-0.14682578
223	0xe1	-0.0989478
224	0xf5	-0.03511051
225	0x0a	0.031918645
226	0x13	0.060645428
227	0xf8	-0.025534917
228	0xfc	-0.012767458
229	0xf8	-0.025534917
230	0xca	-0.17236069
231	0xe2	-0.095755935
232	0x01	0.0031918646
233	0x33	0.1627851
234	0xf8	-0.025534917
235	0xf2	-0.044686105
236	0x0a	0.031918645
237	0x03	0.009575594
238	0xe5	-0.086180344
239	0xf3	-0.04149424
240	0xd1	-0.15001763
241	0xe9	-0.07341289
242	0xf0	-0.051069833
243	0x20	0.10213967
244	0x1c	0.08937221
245	0xf2	-0.044686105
246	0xf1	-0.047877967
247	0x01	0.0031918646
248	0xdc	-0.11490712
249	0x01	0.0031918646
250	0x09	0.02872678
251	0x17	0.07341289
252	0x05	0.015959322
253	0xfb	-0.015959322
254	0x05	0.015959322
255	0x07	0.022343053
